PICASSOL.pth (torch, 75282 bytes, 6 tensors)

fc1.weight f4 [128, 8]
-1.1811436 -0.94690937 -0.42307544 1.7612714 0.2929889 1.2662238 -1.0306109 0.44489586
-0.80532604 0.08646506 0.9803961 0.30926415 0.6713961 0.07061601 0.72469133 -0.19889715
0.5633206 -0.1714994 -0.21661873 -0.27704978 -0.098866515 -1.1136577 -0.5692148 0.061545108
-0.5956229 -0.055634677 0.3322846 -0.56021786 0.19604453 -0.043510832 0.19548953 0.3314623
-1.262563 0.1375017 0.2789311 -0.32032883 -0.59677345 0.9960365 0.10277498 -1.1006312
1.1998048 -0.96139747 0.049627896 -0.62690145 0.8098721 -0.80008096 -1.0249192 -0.32936248
0.14760384 0.25940096 -0.11980107 0.93095326 0.09842405 0.15654477 -0.38542885 -0.81680983
-0.07971994 -0.73268425 -0.1879514 -0.9304329 0.74355596 1.0094503 -1.0760546 -1.1801198
0.062418 -0.8020535 -1.9447474 0.85211724 -0.97679615 -0.98313755 -1.4168934 0.69904184
0.74220926 -0.108288966 -1.4483622 -1.198056 0.9794011 0.14019693 0.3050577 0.0065065827
0.34195492 -0.3352493 0.6753319 0.19031212 1.4943494 0.40316465 -1.2448705 0.7991789
-0.6423872 -0.27664775 0.2347073 -0.12552346 -0.2859266 0.11508033 -0.0018539254 0.2663929
0.8941178 0.26756272 -0.21312866 -0.5308598 0.89900595 -0.4262747 -0.17733178 -0.31728035
0.45331076 0.2782411 0.5077227 0.09899601 -1.0407996 -1.267346 0.28809527 0.4474466
2.032051 -0.305443 0.16502166 -0.587482 1.2509673 -0.54559296 -1.8004975 -0.26360554
1.241395 -0.6303022 0.8761087 -0.18468764 0.9733902 -0.31221524 -0.34556544 0.50621206
0.0009817589 -1.4714139 2.581206 -0.26397616 -0.10417547 -0.26582882 -0.18445191 0.018050512
0.90059006 0.342232 -0.2057478 -0.31668973 0.9990535 -0.2476934 -1.5398551 -1.5621903
-0.22537373 -1.3814614 1.0661273 1.2773162 0.547172 -0.26461434 0.5145165 -0.7028302
0.59814376 -0.35307235 0.026747655 1.7587922 -0.65226275 -0.7733003 0.92227775 -1.1682324
-0.87685865 0.25407088 -0.3869637 -0.36793628 0.56522125 0.9814957 0.1328925 -0.17061153
-0.50320005 0.6150939 -1.1066126 -0.73566407 1.781656 0.03634295 -0.30185738 -0.27022365
0.07339323 0.29587704 1.0731027 -1.0726368 -0.1283353 -0.1884158 0.70146203 -0.69857204
-1.5435362 -0.29615498 -0.6590867 0.38974762 0.18747246 -0.17203592 0.28472045 -0.15784307
-0.22247103 -0.09333055 0.12639675 -0.5586076 -0.007157685 -0.24343972 0.13007711 0.84631217
-2.0294418 0.36245194 -0.61261463 -0.59621155 0.42407855 -0.6712003 -2.477914 0.48993805
-0.39412972 0.037282992 -0.31841025 0.13692527 -1.2636917 -0.8606437 -0.35070482 0.46144962
0.30603832 0.16302517 -0.10399704 0.32228762 0.2194816 0.4184799 -0.6531232 0.43651044
0.29233435 0.5228594 0.31088376 0.50091684 0.7469535 0.6574876 -1.3781927 0.12400237
0.18551588 0.48079452 0.8810723 -0.2811743 0.9960732 0.64293665 0.044864204 -1.7938924
-0.56706583 0.1292418 0.4601634 1.5252713 -1.0794479 -0.4197012 -1.6000708 -1.2244714
-0.89218533 -0.15952818 -1.244749 -0.29318127 0.3694938 -0.1672524 -1.8813474 0.38148394
00000000: b72f 97bf a768 72bf 589d d8be 5771 e13f
00000010: a402 963e 9f13 a23f 0feb 83bf 64c9 e33e
00000020: d929 4ebf 9814 b13d 3dfb 7a3f df57 9e3e
00000030: 9de0 2b3f 209f 903d 5f85 393f b2ab 4bbe
00000040: c735 103f 8a9d 2fbe 4dd1 5dbe 78d9 8dbe
00000050: 877a cabd 568c 8ebf 10b8 11bf b916 7c3d
00000060: be7a 18bf 30e1 63bd 3521 aa3e 706a 0fbf
00000070: e6bf 483e 6a38 32bd 682e 483e 6db5 a93e
00000080: aa9b a1bf 3fcd 0c3e 0fd0 8e3e 2402 a4be
00000090: 25c6 18bf 40fc 7e3f b07b d23d 7ce1 8cbf
000000a0: 3493 993f 251e 76bf 9f46 4b3d 9d7c 20bf
000000b0: c753 4f3f 1bd2 4cbf 8d30 83bf 33a2 a8be
000000c0: 7625 173e 34d0 843e 435a f5bd f452 6e3f
000000d0: 8c92 c93d 464d 203e ee56 c5be 731a 51bf
000000e0: 3544 a3bd 3291 3bbf 5576 40be da30 6ebf
000000f0: af59 3e3f ab35 813f 28bc 89bf 2a0e 97bf
00000100: 04aa 7f3d 6153 4dbf 7ced f8bf 5b24 5a3f
00000110: 500f 7abf e7ae 7bbf c35c b5bf 68f4 323f
00000120: 6d01 3e3f 9bc6 ddbd ef63 b9bf e659 99bf
00000130: 08ba 7a3f c98f 0f3e 8630 9c3e 2c35 d53b
00000140: b714 af3e cca5 abbe 8de2 2c3f 2ee1 423e
00000150: d746 bf3f 996b ce3e eb57 9fbf fd96 4c3f
00000160: 7d73 24bf c6a4 8dbe 1c57 703e 3989 00be
00000170: f964 92be 3caf eb3d 6aff f2ba a664 883e
00000180: e7e4 643f fbfd 883e 663e 5abe 6ee6 07bf
00000190: 4125 663f ad40 dabe 7696 35be 9272 a2be
000001a0: 5918 e83e 9e75 8e3e 1dfa 013f 6cbe ca3d
000001b0: ec38 85bf 6538 a2bf 3981 933e b917 e53e
000001c0: 200d 0240 0663 9cbe 70fb 283e 3865 16bf
000001d0: b21f a03f fbab 0bbf b476 e6bf 4ef7 86be
000001e0: 08e6 9e3f 7c5b 21bf a948 603f c21e 3dbe
000001f0: 1a30 793f adda 9fbe f4ed b0be 1d97 013f
00000200: 5dae 803a 4a57 bcbf 7b32 2540 e227 87be
00000210: f359 d5bd b71a 88be f6e0 3cbe abde 933c
00000220: 128d 663f 0839 af3e 8daf 52be 2825 a2be
00000230: f8c1 7f3f 57a3 7dbe f919 c5bf daf5 c7bf
00000240: 5fc8 66be bad3 b0bf dc76 883f 197f a33f
00000250: 7713 0c3f 887b 87be 5ab7 033f aeec 33bf
00000260: f31f 193f e6c5 b4be e61d db3c 1a20 e13f
00000270: b1fa 26bf 02f7 45bf 651a 6c3f a488 95bf
00000280: cf79 60bf 9415 823e 1b20 c6be 2562 bcbe
00000290: 57b2 103f 4d43 7b3f f914 083e cab4 2ebe
000002a0: b8d1 00bf cb76 1d3f 7ba5 8dbf 7b54 3cbf
000002b0: 4e0d e43f 58dc 143d 0d8d 9abe c15a 8abe
000002c0: 314f 963d 327d 973e 6e5b 893f 2a4c 89bf
000002d0: 546a 03be 12f0 40be 0493 333f 9ed5 32bf
000002e0: 9892 c5bf a0a1 97be e8b9 28bf 008d c73e
000002f0: c8f8 3f3e 2f2a 30be e1c6 913e 9da1 21be
00000300: 72cf 63be 1624 bfbd 266e 013e e800 0fbf
00000310: 038b eabb 4348 79be ef32 053e eaa7 583f
00000320: 60e2 01c0 4d93 b93e 50d4 1cbf 52a1 18bf
00000330: d320 d93e c8d3 2bbf 2596 1ec0 29d9 fa3e
00000340: 5fcb c9be 0db6 183d ab06 a3be 2336 0c3e
00000350: a6c0 a1bf 2553 5cbf 958f b3be 2043 ec3e
00000360: 0eb1 9c3e 12f0 263e 66fc d4bd e202 a53e
00000370: c9bf 603e ff42 d63e 1533 27bf 4c7e df3e
00000380: d9ac 953e 1dda 053f 282c 9f3e 163c 003f
00000390: 5838 3f3f 1b51 283f 9e68 b0bf f4f4 fd3d
000003a0: e0f7 3d3e b32a f63e f48d 613f 14f6 8fbe
000003b0: a7fe 7e3f 7f97 243f 87c3 373d 449e e5bf
000003c0: 3a2b 11bf f657 043e 8a9a eb3e 173c c33f
000003d0: 592b 8abf 13e3 d6be 1fcf ccbf 7bbb 9cbf
000003e0: 4266 64bf 5b5b 23be ef53 9fbf db1b 96be
000003f0: 4b2e bd3e 3744 2bbe fecf f0bf dd51 c33e

fc1.bias f4 [128]
0.33587605 0.20076557 0.30216902 0.24795596 -0.2501134 -0.5605926 -0.95606345 -0.5816612
-0.69602656 0.053575892 0.49963 0.38139203 0.38568974 -0.13289401 -0.22480847 -0.054916732
0.16653077 -0.671587 0.08891304 -0.5798791 0.10284211 0.2552847 -0.003563388 0.1559724
0.3392849 0.117635354 0.041798007 0.31206343 -0.8692999 -1.0346663 -0.87559557 0.24503183
0.30344275 -0.3728351 0.08049431 0.02189205 0.086879425 -0.13795337 0.08393456 -0.48474056
-0.18054825 -0.60342586 0.32058334 -0.59135145 -0.20325917 -0.37448534 -0.11764041 0.1787985
-0.14237016 0.6278794 0.43829283 0.5362796 -0.22781232 -0.9885096 0.4790023 -0.6755876
-0.0043593245 0.33710113 0.2842416 0.11981217 0.13648525 0.49068826 -0.24133162 0.06552813
0.87555677 0.12720518 -0.25631982 0.4691723 -0.20199631 -0.27313983 0.27829492 0.020164216
-0.3246034 0.5718442 -0.01101889 -0.6371852 0.44333148 0.098782346 0.34219578 -0.2153061
-0.17342818 0.16900143 -0.31479657 0.39506254 -0.008375687 -0.28450572 0.2804799 0.1391635
-0.32710353 0.34279734 -0.22830468 0.5266382 -0.13641657 -0.99266493 0.25605944 -0.42778066
-0.36216038 -0.014249113 0.15517774 -0.77882683 0.23855996 0.4571663 0.2550681 -0.16979219
0.04618172 -0.344809 -0.32143006 0.3870942 -0.25527143 -0.11384488 -0.7681321 -0.56382316
0.5140636 -0.31616122 0.5604744 0.036722817 0.55811447 0.303357 0.49307555 -0.0002155334
-0.04229761 0.013075978 0.57357043 0.37484303 -0.11844627 -0.7165547 0.41285244 0.033639804
00000000: f2f7 ab3e 7d95 4d3e e6b5 9a3e 2be8 7d3e
00000010: dd0e 80be ff82 0fbf 93c0 74bf c0e7 14bf
00000020: cc2e 32bf 6572 5b3d 81cf ff3e d145 c33e
00000030: 2079 c53e 5e15 08be 3134 66be 5ef0 60bd
00000040: 0b87 2a3e 20ed 2bbf 0a18 b63d f572 14bf
00000050: e29e d23d adb4 823e bb87 69bb 3bb7 1f3e
00000060: c0b6 ad3e ceea f03d 6334 2b3d c7c6 9f3e
00000070: 708a 5ebf f26f 84bf 0827 60bf a0e9 7a3e
00000080: d95c 9b3e 3ee4 bebe 33da a43d f556 b33c
00000090: d7ed b13d a643 0dbe e2e5 ab3d ea2f f8be
000000a0: a4e1 38be 1e7a 1abf 8023 a43e cf62 17bf
000000b0: 2c23 50be 8bbc bfbe 75ed f0bd f416 373e
000000c0: 7cc9 11be b4bc 203f eb67 e03e 9f49 093f
000000d0: a247 69be f70e 7dbf ca3f f53e 4ff3 2cbf
000000e0: aad8 8ebb 8598 ac3e 1d88 913e 1560 f53d
000000f0: cac2 0b3e 7e3b fb3e a31f 77be 9d33 863d
00000100: 7d24 603f 1342 023e 5a3c 83be 5a37 f03e
00000110: 1fd8 4ebe fcd8 8bbe ac7c 8e3e 6d2f a53c
00000120: 6b32 a6be 6264 123f 9388 34bc 921e 23bf
00000130: 58fc e23e 664e ca3d 4934 af3e 3479 5cbe
00000140: 2897 31be b60e 2d3e 042d a1be a345 ca3e
00000150: 2d3a 09bc bcaa 91be 109b 8f3e e080 0e3e
00000160: 1d7a a7be 2283 af3e b4c8 69be c3d1 063f
00000170: c9b0 0bbe 4a1f 7ebf 391a 833e 1106 dbbe
00000180: 166d b9be 1d75 69bc eae6 1e3e 3261 47bf
00000190: 1049 743e b411 ea3e 4998 823e 01de 2dbe
000001a0: 0b29 3d3d ce8a b0be 7b92 a4be 3631 c63e
000001b0: f0b2 82be 8127 e9bd 4ea4 44bf b756 10bf
000001c0: ac99 033f e2df a1be 407b 0f3f aa6a 163d
000001d0: 97e0 0e3f 9c51 9b3e 6674 fc3e ce00 62b9
000001e0: 4240 2dbd a03c 563c 83d5 123f 6deb bf3e
000001f0: f593 f2bd 2170 37bf 6561 d33e e4c9 093d

fc2.weight f4 [128, 128]
-0.079719126 -0.019672168 -0.0028986114 -0.09792401 -0.12422154 0.12883328 -0.046082035 0.05758974
0.08555333 0.015195729 -0.06300414 0.049242653 -0.07038283 -0.054434802 -0.0798705 0.06787648
-0.04563578 -0.031748872 -0.10506815 -0.009259458 -0.07891692 -0.019972334 0.035822105 0.014905505
-0.056376893 -0.042667415 0.03572537 0.018057719 -0.06549421 -0.11476627 -0.05449515 0.022166032
-0.10306505 -0.050201386 -0.049780115 -0.02656599 0.010500635 -0.048813313 -0.09086231 -0.10824446
0.032300953 0.019136164 0.075847566 -0.06650584 -0.040638328 -0.061854735 -0.035920117 -0.013294411
-0.053616025 -0.06301904 -0.03170633 -0.09342139 -0.054086655 -0.02163366 -0.017639823 0.026470292
0.052643906 0.0062673423 0.07765112 0.06826603 -0.036476146 0.012489881 -0.025468899 -0.056954745
0.02923861 0.019766185 0.0035084204 -0.052947715 0.07926521 0.09107082 -0.011368343 -0.026340267
0.03475647 0.030596396 -0.04449933 -0.07754297 0.07544514 -0.018304083 0.058694992 -0.07154638
0.03966346 0.0068136156 0.019042496 -0.07073354 -0.06885497 -0.03998448 -0.10119262 -0.04918545
-0.008956532 0.04859516 -0.003836358 -0.016118081 0.08631139 0.018598437 -0.0044363877 -0.08694685
0.086351976 -0.11870908 0.084129795 0.057609957 0.06011095 -0.08030991 0.04405133 0.018477665
-0.07769491 -0.025750227 -0.048717454 0.047024183 -0.072342575 -0.0661438 0.05199233 0.060284935
0.03344756 0.013693774 -0.08059749 -0.12617607 -0.031699326 -0.03343384 0.017459095 -0.1017608
0.053530883 -0.11416995 -0.07268168 -0.036260962 -0.00792413 -0.10647484 -0.011519497 0.017751338
0.6695711 0.50862557 -0.19697689 0.03721761 0.6524826 -1.6142786 -1.8134413 -1.5563787
-0.3795218 0.6158729 0.1719919 0.16571698 0.42791516 -0.25391358 -0.076795496 -0.17257062
0.6910744 0.5743944 0.89679396 -1.3027495 0.43345946 0.5444562 0.8197953 -0.0029131125
-0.045867126 0.6553481 0.113202795 0.2766819 0.6774144 0.7247535 0.71497154 0.51612073
0.31456935 -0.9456876 0.7054339 -0.29548553 0.5497283 -0.18078649 -0.757645 -1.2958155
0.3588056 -1.6060116 0.2093874 0.015429044 1.2123665 -0.31076846 -1.0486852 0.21161185
0.45320445 0.026436217 0.46246102 0.508784 -0.058124002 -0.5953791 0.32287565 0.5926361
-0.3089661 0.3222751 0.2755704 0.34585172 0.52872425 0.43086958 0.7743401 0.55369747
0.047274314 0.6667053 0.5837117 -0.2134878 1.1864247 -0.47624177 0.24588843 0.75744915
-0.011831413 0.6837495 0.82668555 0.9041753 0.45809764 0.4227522 0.59483624 0.4324952
-0.5444747 0.1811604 0.4191114 0.53212655 -0.20187633 0.3708209 -0.15911232 0.40603384
-0.034052905 -0.4427519 -0.10858218 0.62489265 -1.5402751 -0.5447041 -0.22293423 0.05922304
-0.050512906 0.8503185 0.0988488 -0.55972517 0.27703324 -0.8076933 0.16396698 -0.20992446
1.4143554 0.05312207 -0.0246522 0.5576668 -0.6545702 0.49230927 -0.085817285 -0.7969642
0.12728082 1.1924658 0.5105056 0.45824033 0.6353176 0.37664625 -0.002437075 1.1099129
1.9933785 0.11687043 -0.24066062 0.38127533 -0.0061274837 -0.61273587 0.46676877 0.11804775
00000000: c843 a3bd 8727 a1bc a1f6 3dbb 628c c8bd
00000010: dd67 febd dfec 033e 84c0 3cbd 38e3 6b3d
00000020: 9636 af3d 82f7 783c 5108 81bd aab2 493d
00000030: e024 90bd 07f7 5ebd 2593 a3bd d302 8b3d
00000040: 95ec 3abd 1b0b 02bd f82d d7bd fbb4 17bc
00000050: 329f a1bd 059d a3bc 33ba 123d 3836 743c
00000060: 75eb 66bd 07c4 2ebd c454 123d c8ed 933c
00000070: d421 86bd 940a ebbd 4e36 5fbd 8a95 b53c
00000080: c513 d3bd f89f 4dbd 3ce6 4bbd eba0 d9bc
00000090: db0a 2c3c 78f0 47bd 0516 babd 45af ddbd
000000a0: 014e 043d 72c3 9c3c f855 9b3d 3734 88bd
000000b0: 6074 26bd 645b 7dbd f920 13bd cdd0 59bc
000000c0: 7a9c 5bbd 2010 81bd 7fde 01bd b753 bfbd
000000d0: f889 5dbd 1339 b1bc 6481 90bc 3ad8 d83c
000000e0: 23a1 573d 475e cd3b 8d07 9f3d 0fcf 8b3d
000000f0: 0368 15bd 5ca2 4c3c 27a4 d0bc 6149 69bd
00000100: cf85 ef3c b2ec a13c 87ed 653b b4df 58bd
00000110: cc55 a23d 5783 ba3d 4942 3abc 8bc7 d7bc
00000120: cd5c 0e3d 4ba5 fa3c ee44 36bd d9ce 9ebd
00000130: fb82 9a3d 72f2 95bc 296a 703d e986 92bd
00000140: 2776 223d c044 df3b 02ff 9b3c bfdc 90bd
00000150: d603 8dbd c4c6 23bd 143e cfbd af76 49bd
00000160: 6bbe 12bc b80b 473d 686b 7bbb 110a 84bc
00000170: 07c4 b03d c05b 983c 1e5f 91bb 3111 b2bd
00000180: 4ed9 b03d bf1d f3bd 3e4c ac3d 6bf8 6b3d
00000190: e636 763d 8679 a4bd 2b6f 343d 795e 973c
000001a0: 821e 9fbd 24f2 d2bc f48b 47bd 6e9c 403d
000001b0: 5828 94bd 6776 87bd e9f5 543d 56ed 763d
000001c0: 4f00 093d da5b 603c 4c10 a5bd 4d34 01be
000001d0: 27d7 01bd ecf1 08bd 6006 8f3c f767 d0bd
000001e0: 3343 5b3d efd1 e9bd 22da 94bd 6086 14bd
000001f0: 36d4 01bc 7b0f dabd 46bc 3cbc 416b 913c
00000200: 0369 2b3f 4935 023f 4fb4 49be 7e71 183d
00000210: 1a09 273f aea0 cebf d81e e8bf 6b37 c7bf
00000220: ae50 c2be d9a9 1d3f a51e 303e b6b1 293e
00000230: b217 db3e f600 82be f546 9dbd 5ab6 30be
00000240: 40ea 303f 830b 133f 4a94 653f 7fc0 a6bf
00000250: 66ee dd3e 7b61 0b3f 1bde 513f ebe9 3ebb
00000260: 2bdf 3bbd e5c4 273f ded6 e73d 40a9 8d3e
00000270: 086b 2d3f 7289 393f 6008 373f 7d20 043f
00000280: 3c0f a13e 9518 72bf 5197 343f e149 97be
00000290: feba 0c3f 1820 39be 06f5 41bf 48dd a5bf
000002a0: 5eb5 b73e ca91 cdbf a769 563e 1aca 7c3c
000002b0: d32e 9b3f 0b1d 9fbe 513b 86bf c7b0 583e
000002c0: 6a0a e83e c490 d83c b1c7 ec3e ab3f 023f
000002d0: 6f13 6ebd c46a 18bf f54f a53e 00b7 173f
000002e0: ce30 9ebe 3e01 a53e 9017 8d3e 7a13 b13e
000002f0: 795a 073f f09a dc3e 273b 463f 1ebf 0d3f
00000300: b6a2 413d 33ad 2a3f 216e 153f 8c9c 5abe
00000310: c4dc 973f f6d5 f3be 2dca 7b3e 30e8 413f
00000320: 8bd8 41bc 350a 2f3f aaa1 533f 0878 673f
00000330: c68b ea3e fa72 d83e 3047 183f 0370 dd3e
00000340: b262 0bbf 1d82 393e c595 d63e 7239 083f
00000350: abb8 4ebe 3ddc bd3e 57ee 22be abe3 cf3e
00000360: 0f7b 0bbd 61b0 e2be 5660 debd f7f8 1f3f
00000370: bc27 c5bf ba71 0bbf df48 64be dc93 723d
00000380: 9fe6 4ebd 79ae 593f 3d71 ca3d 264a 0fbf
00000390: 4dd7 8d3e fdc4 4ebf f6e6 273e 70f6 56be
000003a0: 9909 b53f 8796 593d 69f3 c9bc 40c3 0e3f
000003b0: ea91 27bf f60f fc3e f9c0 afbd d905 4cbf
000003c0: e755 023e b8a2 983f 7fb0 023f 7a9e ea3e
000003d0: 2da4 223f c7d7 c03e 55b7 1fbb a011 8e3f
000003e0: 0727 ff3f c459 ef3d bd6f 76be 8536 c33e
000003f0: 0fc9 c8bb 42dc 1cbf 51fc ee3e 05c3 f13d

fc2.bias f4 [128]
-0.080427736 0.45526177 0.15925844 0.082787454 0.30457556 -0.091292754 0.1809903 -0.15096448
-0.057714023 0.18584815 -0.060746055 0.025787756 -0.10767271 -0.16281447 0.18829471 -0.4014232
-0.02435726 -0.3584179 0.012075743 -0.07121271 0.34476468 0.41083938 0.30487007 0.42217687
-0.07038853 -0.24546823 0.2083138 0.021561142 -0.016301444 -0.11017933 0.13414837 -0.041420955
0.12431729 -0.004056918 0.06868822 0.22320777 -0.0864169 0.23519768 0.15556443 -0.06385181
0.47571173 -0.101552315 0.02773677 -0.06657541 -0.042396322 -0.007861455 -0.11138686 -0.30149895
-0.05903388 0.16621996 0.20829675 0.02595748 0.0015032871 0.014747671 -0.032583285 0.045113556
0.41773754 0.2016144 0.51431596 -0.4188366 0.009481993 0.18286572 -0.07249321 0.070761465
0.502715 -0.16137911 -0.016339356 0.11148577 0.026322177 -0.66868526 -0.18574128 0.17310178
0.089265674 0.0134409815 0.0037275085 -0.23607783 0.3775727 0.3116973 -0.035338037 -0.16529831
0.09394567 -0.027816622 0.077298045 -0.07922644 -0.10396366 0.03014666 -0.06283243 0.018013498
-0.10549533 0.06806019 -0.058124084 0.15197356 -0.0616689 0.47315663 0.20119989 0.7058328
0.09301091 -0.09763686 -0.09198243 0.5020217 -0.30252632 -0.15433007 0.004307515 -0.12576713
0.055330146 -0.1111454 -0.068139456 -0.049295146 -0.12844878 0.08358443 -0.26549602 0.017650977
-0.6986399 0.0050895885 -0.07936071 0.28728193 -0.29338214 -0.35993963 -0.28599128 -0.1736519
-0.029974082 0.056367043 0.07584263 0.16435932 -0.043548953 0.13990128 -0.07230384 0.024206929
00000000: 4cb7 a4bd 1218 e93e a514 233e 788c a93d
00000010: 54f1 9b3e b2f7 babd 8555 393e 6f96 1abe
00000020: 8a65 6cbd fa4e 3e3e dbd0 78bd d840 d33c
00000030: 8383 dcbd d6b8 26be 54d0 403e 5787 cdbe
00000040: e088 c7bc 8d82 b7be 56d9 453c f8d7 91bd
00000050: ff84 b03e 8a59 d23e ee17 9c3e 9127 d83e
00000060: dd27 90bd 065c 7bbe 3650 553e fea0 b03c
00000070: 9b8a 85bc b3a5 e1bd 315e 093e 05a9 29bd
00000080: 109a fe3d e5ef 84bb 69ac 8c3d 9490 643e
00000090: 58fb b0bd a9d7 703e 484c 1f3e bdc4 82bd
000000a0: 7d90 f33e a9fa cfbd 3938 e33c b058 88bd
000000b0: c4a7 2dbd 55cd 00bc cb1e e4bd 125e 9abe
000000c0: 82cd 71bd 9135 2a3e be4b 553e c8a4 d43c
000000d0: f209 c53a 37a0 713c 0d76 05bd fec8 383d
000000e0: b2e1 d53e 0174 4e3e 36aa 033f c071 d6be
000000f0: 5c5a 1b3c 2741 3b3e 5277 94bd 63eb 903d
00000100: eeb1 003f 9140 25be 1dda 85bc a752 e43d
00000110: 9ba1 d73c f52e 2bbf f632 3ebe 9841 313e
00000120: ecd0 b63d 9037 5c3c 3749 743b 63be 71be
00000130: 3551 c13e ca96 9f3e 9ebe 10bd f643 29be
00000140: 9666 c03d afdf e3bc 704e 9e3d 7941 a2bd
00000150: e6ea d4bd 21f6 f63c 4aae 80bd 0b91 933c
00000160: f00d d8bd 2463 8b3d 8513 6ebd f59e 1b3e
00000170: 8798 7cbd 9641 f23e 5807 4e3e 75b1 343f
00000180: 817c be3d d6f5 c7bd 4961 bcbd 7e84 003f
00000190: bbe4 9abe b408 1ebe 0e26 8d3b 19c9 00be
000001a0: dda1 623d 33a0 e3bd b38c 8bbd b5e9 49bd
000001b0: 1488 03be 502e ab3d 18ef 87be c898 903c
000001c0: 11da 32bf 90c6 a63b de87 a2bd 9e16 933e
000001d0: 2f36 96be 024a b8be 736d 92be ced1 31be
000001e0: 358c f5bc 21e1 663d 6153 9b3d cf4d 283e
000001f0: 6360 32bd 4842 0f3e 0914 94bd 9c4d c63c

fc3.weight f4 [4, 128]
-0.0044493536 0.5683886 1.6499156 -0.24494623 -0.49629158 -0.84529626 1.4446082 -0.9316428
0.0027271989 -0.7982589 -0.02668524 0.06310291 -0.08096607 -0.7988282 -1.2417767 -1.2701943
-0.07835735 -1.6603285 -0.07478435 0.03745307 0.618772 -0.73658615 -1.4918242 -0.3509396
-0.046694364 -0.6319262 1.9511119 0.01447585 -0.69551814 -0.022483466 0.62373173 -0.5104344
-0.36188218 -0.85291576 -1.0705045 -0.9762393 -0.07393729 1.2958937 -0.43063435 -0.028686132
0.9023972 0.043784052 -0.036230672 -0.009813178 -0.00768867 -0.051364828 0.077126 -0.95908695
1.1923288 -0.029742597 -1.1924719 -0.07167905 -0.038839336 -1.0310061 0.0075618452 -0.03774255
0.8705612 -0.96368146 0.816726 -1.2894322 -0.35647178 0.35313135 0.082162276 -0.5176718
0.7643378 -0.7981448 -0.0042516263 -0.27687168 -0.78199965 -0.004446049 1.9959201 -0.43814895
-0.70310843 0.028397972 -0.09378812 2.2531903 2.3521678 -0.5987594 -0.062154118 0.11857157
-1.1049979 -0.054388233 0.6202369 0.005559712 -0.7863171 1.001209 -0.04232103 0.8831344
0.003974992 -0.54586035 -0.2560009 -0.6686595 -0.45172182 -1.1554674 1.0630587 1.3865907
-0.48946416 0.052453857 0.0070867115 0.7578472 -1.5311668 -0.25857392 -0.036151186 -0.014146562
-0.8820284 -0.82581645 -0.7465283 -0.92811966 1.0922174 -1.0388668 1.7784879 -0.6238663
-1.0869875 -0.7723883 -0.6870348 -1.433352 -1.0513077 2.2395692 -1.2767615 -0.5161584
0.035257574 -1.2927493 -1.0992891 -0.268326 0.0019782707 -0.20531686 0.014450764 -0.073432766
0.039580915 0.5615091 1.5069855 -0.26469693 -0.78476834 -0.8617947 1.5584191 -1.2674736
0.0117725255 -0.7776608 0.02856015 -0.006012068 0.09857168 -0.7032604 -1.4501665 -1.0914713
0.04397752 -1.9613144 -0.022705432 0.04243971 0.65838337 -0.8811543 -1.4840255 -0.19714066
-0.00067581306 -0.603582 0.83342844 -0.0195866 -0.70909226 0.017132103 0.2858554 -0.53400004
-0.3254045 -0.47993654 -1.0665234 -0.85422856 -0.03204751 1.2687968 -0.5671516 -0.039366525
0.84158534 -0.0007605188 0.027933376 -0.03394114 -0.050335087 0.028969314 -0.015023011 -1.3114481
1.2173703 -1.2799163 -0.74899673 0.030925147 -0.012436429 -0.939763 -0.048390713 -0.029919088
1.016828 -0.8052489 0.8057379 -1.4000976 0.14161181 0.13570666 0.03701232 -0.49750444
0.7039072 -0.9375472 0.03422642 -0.53572285 -0.681177 -0.038246915 1.419944 -0.43648043
-0.80496705 0.044676304 -0.019699713 2.5696137 2.401507 -0.91250354 -0.017414184 -0.1400987
-0.88730705 0.032598387 0.7345756 0.0124808485 -0.8860273 0.95343345 0.0013600583 0.67101
0.04165059 -0.45705923 -0.3973128 -0.6831258 -0.49175727 -1.078823 1.128496 1.5277227
-0.34483308 0.046254236 0.056035977 0.8162518 -0.8327224 0.15787043 -0.07575802 0.03589966
-1.1612365 -0.77350515 -0.097923204 -0.7036891 1.1229948 -0.8043879 1.2478421 -0.64389586
-1.6284778 -0.22747585 -0.69135565 -1.4565628 -1.3012371 3.4182906 -2.0071962 0.49600893
0.021718347 -0.5505393 -0.9405897 0.5767247 -0.024453018 -0.44538534 -0.0875146 0.012463814
00000000: e2cb 91bb ea81 113f 6f30 d33f 2fd3 7abe
00000010: ee19 febe 5665 58bf ece8 b83f 2480 6ebf
00000020: ceba 323b b25a 4cbf 019b dabc 193c 813d
00000030: 8ad1 a5bd 0180 4cbf 8af2 9ebf ba95 a2bf
00000040: d179 a0bd a585 d4bf 8a28 99bd 6468 193d
00000050: d767 1e3f e990 3cbf 18f4 bebf 5bae b3be
00000060: 9742 3fbd eac5 21bf 09be f93f 1e2c 6d3c
00000070: 7a0d 32bf 3f2f b8bc e2ac 1f3f d4ab 02bf
00000080: 9f48 b9be b058 5abf 4b06 89bf d2ea 79bf
00000090: 6f6c 97bd d8df a53f 1b7c dcbe 2eff eabc
000000a0: 8103 673f e856 333d 9d66 14bd 74c7 20bc
000000b0: 3df1 fbbb ed63 52bd 3cf4 9d3d b986 75bf
000000c0: 3b9e 983f bfa6 f3bc eba2 98bf 77cc 92bd
000000d0: ff15 1fbd 02f8 83bf 5bc9 f73b ef97 1abd
000000e0: 19dd 5e3f d4b3 76bf f514 513f 1d0c a5bf
000000f0: 7883 b6be a2cd b43e b244 a83d 2486 04bf
00000100: a4ab 433f 3853 4cbf 3a51 8bbb 20c2 8dbe
00000110: 2131 48bf 2ab0 91bb 4f7a ff3f 0f55 e0be
00000120: eafe 33bf dda2 e83c fc13 c0bd 4534 1040
00000130: eb89 1640 4c48 19bf 5195 7ebd a7d5 f23d
00000140: 9270 8dbf 32c6 5ebd d8c7 1e3f 3f2e b63b
00000150: 144c 49bf 9e27 803f d158 2dbd 1915 623f
00000160: a640 823b 81bd 0bbf 8d12 83be 452d 2bbf
00000170: 1548 e7be 5be6 93bf 4f12 883f ce7b b13f
00000180: 0c9b fabe dbd9 563d a537 e83b 4602 423f
00000190: 46fd c3bf cd63 84be 4413 14bd fbc6 67bc
000001a0: 9dcc 61bf b568 53bf 7b1c 3fbf 4099 6dbf
000001b0: c8cd 8b3f 96f9 84bf 7ea5 e33f b4b5 1fbf
000001c0: 6822 8bbf 3dbb 45bf 83e1 2fbf 1478 b7bf
000001d0: 4091 86bf 1a55 0f40 ec6c a3bf f522 04bf
000001e0: 3f6a 103d cf78 a5bf 81b5 8cbf 0762 89be
000001f0: e0a5 013b 953e 52be e6c2 6c3c eb63 96bd
00000200: 991f 223d 0fbf 0f3f e7e4 c03f 5b86 87be
00000210: 94e6 48bf 949e 5cbf 477a c73f 933c a2bf
00000220: 8de1 403c c714 47bf faf6 e93c e200 c5bb
00000230: f3df c93d e008 34bf 0e9f b9bf 55b5 8bbf
00000240: c621 343d 5a0c fbbf be00 babc 43d5 2d3d
00000250: d08b 283f 5493 61bf 8cf4 bdbf 3edf 49be
00000260: 0c29 31ba 5a84 1abf 915b 553f 1474 a0bc
00000270: 1287 35bf a058 8c3c a45b 923e 3ab4 08bf
00000280: 6b9b a6be 3eba f5be d783 88bf b9ae 5abf
00000290: 4044 03bd ef67 a23f d930 11bf cb3e 21bd
000002a0: 2372 573f 8d5d 47ba 89d4 e43c dd05 0bbd
000002b0: 2a2c 4ebd 0e51 ed3c 1323 76bc 88dd a7bf
000002c0: cad2 9b3f 4cd4 a3bf 40be 3fbf bc56 fd3c
000002d0: 2ac2 4bbc 4f94 70bf 5735 46bd e018 f5bc
000002e0: 6b27 823f cb24 4ebf d744 4e3f 6636 b3bf
000002f0: b002 113e b0f6 0a3e 3b9a 173d e7b8 febe
00000300: 4333 343f 1803 70bf 0131 0c3d 2225 09bf
00000310: 9e61 2ebf cca8 1cbd bac0 b53f 5d7a dfbe
00000320: 5212 4ebf 80fe 363d 4b61 a1bc 8d74 2440
00000330: 4ab2 1940 d599 69bf 31a8 8ebc 0976 0fbe
00000340: 8e26 63bf e385 053d 260d 3c3f 797c 4c3c
00000350: afd2 62bf 3714 743f fc43 b23a 50c7 2b3f
00000360: cf99 2a3d ab03 eabe 956c cbbe 55e1 2ebf
00000370: 9cc7 fbbe df16 8abf 8f72 903f 6b8c c33f
00000380: f68d b0be 1575 3d3d fb85 653d e1f5 503f
00000390: 4c2d 55bf c9a8 213e 0527 9bbd 860b 133d
000003a0: 66a3 94bf 6f04 46bf f68b c8bd f824 34bf
000003b0: 4bbe 8f3f 5eec 4dbf 4ab9 9f3f 5cd6 24bf
000003c0: f671 d0bf 6eef 68be affc 30bf a670 babf
000003d0: f08e a6bf 46c5 5a40 e775 00c0 e2f4 fd3e
000003e0: adea b13c 25f0 0cbf 7dca 70bf 3ba4 133f
000003f0: b251 c8bc 8c09 e4be db3a b3bd 0635 4c3c

fc3.bias f4 [4]
0.18321371 0.4014436 0.20896602 0.22188179
00000000: 609c 3b3e 048a cd3e 30fb 553e fb34 633e
