PICASSOL.pth (torch, 9828 bytes, 8 tensors)

input_layer.weight f4 [32, 11]
000000 e5 1e f1 bd a8 9e 17 3e 6f 57 70 bd 37 f3 99 bc
       -0.11773471 0.14806616 -0.058677133 -0.018792732
000010 aa 52 41 be eb da 2e 3e 22 53 5c 3e 8d bd 97 bb
       -0.1887919 0.17075698 0.21516088 -0.0046307505
000020 ef 61 98 3e f3 29 6b be b0 38 d0 3d 63 fa 5a 3c
       0.29762217 -0.22965221 0.10167062 0.013365361
000030 fd ab 87 3b fa e6 61 be 87 ea 6c 3e 8d e0 16 bd
       0.0041403756 -0.22060767 0.2313634 -0.036835242
000040 60 8b 71 3d 79 be b9 bd 1e e3 02 3e f4 22 97 3e
       0.05897081 -0.09069533 0.12781951 0.29518855
000050 50 00 73 3e c9 17 80 3e 9a 6d 92 3e 8c 97 b2 be
       0.23730588 0.25018147 0.28599244 -0.34881246
000060 29 49 93 be c8 ed 45 3e 72 96 6f be bf 0b 53 be
       -0.28766754 0.19328988 -0.23397234 -0.2060995
000070 ec bd 97 3e f8 d6 02 be bc b7 8d 3c 48 e3 81 be
       0.29637086 -0.12777317 0.017299525 -0.25368714
000080 5c 90 72 3e 20 01 81 bd 07 50 d1 be fe fd 33 be
       0.23687881 -0.06299043 -0.4088137 -0.17577359
000090 a5 44 a2 be b1 1a 9b 3d c8 34 ad bd 13 c6 ce 3d
       -0.31692997 0.0757345 -0.08457333 0.100963734
0000a0 9a 42 52 be 43 9a 3d be 1a 64 67 3e 75 0a 95 bd
       -0.20533219 -0.18515877 0.2259678 -0.07277385
0000b0 1e d7 7e 3e fa 55 93 3c 55 fb 0e be 99 9d bf bc
       0.24886748 0.017985333 -0.13963063 -0.023390578
0000c0 e2 99 0b 3e 8a 17 3d 3e 69 d9 6e bd 1f 5a d2 bc
       0.1363292 0.1846601 -0.058312807 -0.025677739
0000d0 bf 32 09 be 7e 82 d0 bd 93 0a d2 bd 06 f7 63 3e
       -0.13398264 -0.101811394 -0.10255923 0.222622
0000e0 ea cb a0 3e 38 51 e6 bc 0c 69 6b 3e 0a fa 24 be
       0.31405574 -0.0281149 0.22989291 -0.16111007
0000f0 3c 5c 38 3e c2 48 4b be db da 61 3e 3d 1c 1e bd
       0.18003935 -0.19851974 0.22056143 -0.03860115
000100 7c 63 70 3e 53 a7 9f 3e 2d 14 48 3d 28 61 5e 3e
       0.2347545 0.31182346 0.048847366 0.2171675
000110 5f 43 99 bd aa e4 72 bd 38 88 27 be 80 8f ab be
       -0.07483553 -0.059300102 -0.16360557 -0.3350792
000120 d4 18 fd 3c eb 4d 51 be 92 ba 88 3e 8b e5 89 3e
       0.030895628 -0.2043988 0.26704842 0.2693294
000130 94 47 35 3e e6 09 6e 3e 6c 6f 0f bd a3 b2 8a bd
       0.17703086 0.23245963 -0.03501837 -0.067723535
000140 c2 66 87 be fd 94 be 3d 17 83 4b be bd 43 8f be
       -0.26445585 0.09305761 -0.19874226 -0.27981368
000150 f0 40 76 be 93 df 17 3d 04 d3 08 be 57 c8 85 bd
       -0.24048209 0.03707845 -0.13361746 -0.065323524
000160 a0 e4 b0 be 47 ee de bd dc 98 d3 3d ea 87 ef bd
       -0.34549427 -0.108852915 0.1033189 -0.116958454
000170 60 cd cb 3d ab 06 44 be 9e 5a 23 be 3b ee f7 bd
       0.099512815 -0.19143169 -0.15952536 -0.12105986
000180 34 61 a0 3e d3 38 1f 3e 65 7f 52 be 91 c7 71 3e
       0.3132416 0.1554902 -0.2055641 0.23611285
000190 b0 6f 2b 3d 82 7f 13 3e f8 7e a1 3d db 0a 2f be
       0.04185456 0.14404109 0.078855455 -0.17093985
0001a0 88 fd 0b be c0 cd 14 bc b9 f2 bf ba 27 93 75 bd
       -0.13670933 -0.009082258 -0.001464448 -0.05995479
0001b0 e8 26 95 be 4b 9f 55 3e e0 06 1e 3d f4 b5 0b 3d
       -0.29131246 0.20861547 0.038580775 0.03410907
0001c0 81 15 7c 3e e2 cf 8f 3d 7a 69 3e 3c 05 a7 52 be
       0.24617578 0.070220724 0.011621827 -0.20571525
0001d0 b7 6a 67 be 9d b1 4e 3d 37 a0 ff bd d7 08 71 3c
       -0.22599302 0.050462354 -0.124817304 0.01471158
0001e0 93 bb 51 3e 17 8c 93 3e 31 72 09 be 92 76 14 be
       0.2048171 0.28817818 -0.13422467 -0.14498356
0001f0 d3 1c 01 3e 16 26 0f be 5b 17 3e be a0 1b 64 be
       0.12608652 -0.13979372 -0.18563597 -0.22276163
000200 ad c8 8d bd b2 e1 34 be 12 f9 8e be 83 3f 53 3e
       -0.069230415 -0.17664221 -0.279244 0.20629697
000210 1b cf 88 be b1 dd ab be d3 ac 6c 3e 2b a4 82 be
       -0.2672051 -0.33567575 0.23112802 -0.25515875
000220 ca d2 a9 bd ab 49 61 be bc 43 74 be b4 db 85 3e
       -0.08292158 -0.22000758 -0.23853964 0.26144183
000230 f1 ce 00 3e 5c 67 e3 3d 6e d7 ca 3d 7c 1d f8 bd
       0.12578942 0.111036986 0.09904371 -0.12114999
000240 74 c9 f3 3b 6c 8e c4 3e f8 54 12 be 65 5f 51 3e
       0.0074397866 0.3838991 -0.14290226 0.20446546
000250 8d 4f d1 3d d5 a4 5d bc d6 52 74 3e 29 ff 57 be
       0.10220251 -0.013528069 0.23859724 -0.2109343
000260 17 71 ce 3d fb 47 e7 bd d1 6e 01 3e 95 f2 2a be
       0.10080164 -0.11293026 0.1263993 -0.166941
000270 11 be 2f 3e 71 7d 11 bc ad 6a 6a 3c 7d ef 95 3e
       0.17162348 -0.008880005 0.01430766 0.29284278
000280 a2 f3 5e 3e 5c dc 8d be 90 ac 4f 3e 11 14 93 3d
       0.21772626 -0.27707183 0.20280671 0.07181562
000290 c7 4f af 3c e0 30 bb 3c 4a d2 ef be e2 08 1b be
       0.021400345 0.022850454 -0.46840125 -0.15140107
0002a0 a0 6a 9e be ad 11 16 3e 38 cb 27 be bf 95 28 3d
       -0.30940723 0.1465518 -0.16386116 0.041158434
0002b0 de 41 87 be 0f fd b8 3d b3 1c ad bc 58 46 75 3e
       -0.2641744 0.09032642 -0.021131849 0.23952615
0002c0 63 e1 7e bd c1 23 e9 be 4c 73 69 3d 68 22 37 be
       -0.062226664 -0.4553509 0.05699472 -0.17884219
0002d0 29 50 26 3e 1c 4d c8 bd 0c 53 01 3e f2 33 0f be
       0.16241516 -0.097803324 0.12629336 -0.1398466
0002e0 eb 00 7b be f1 d4 07 3e c2 79 08 bd eb 85 bf 3d
       -0.24512069 0.13264824 -0.033319242 0.09351715
0002f0 ac e3 5c 3e 99 04 e7 3d ca 23 20 be 6c 8c 12 be
       0.21571225 0.11280174 -0.15638652 -0.14311379
000300 1c 65 77 3e d2 dc 36 3c 28 08 93 3e 51 64 e9 3c
       0.24159664 0.011161046 0.2871716 0.028490217
000310 f2 fb 0e 3e 89 aa 43 3e 6f 99 54 3e ea 6f 67 3e
       0.13963297 0.19108023 0.20761655 0.22601286
000320 80 1d 95 be 26 a3 b0 3e d3 65 fe 3c e2 52 84 bd
       -0.2912407 0.34499472 0.031054413 -0.06461121
000330 2a 4f a9 bd 63 0c 9b bd 35 ac ae bd 2c 1c 49 3e
       -0.082670525 -0.07570722 -0.0852894 0.19639653
000340 e6 b1 16 3e 78 1e d0 bc 89 56 d0 3d 7b 12 1e 3d
       0.147163 -0.025405154 0.10172755 0.038591843
000350 02 1c b5 3d 29 ad 84 3e 4a cb 4b 3d cf 51 94 3e
       0.08843233 0.2591336 0.04975442 0.28968665
000360 4e 69 3e 3e d9 f5 6f 3e e1 1e 62 be a8 4d ce 3c
       0.18594858 0.23433627 -0.22082092 0.025183514
000370 dc 75 2f be e7 78 c1 3e dc 2b 98 3e 8a 75 2d be
       -0.17134804 0.37787554 0.29720962 -0.16939369
000380 49 39 58 3e 0a 9d 2a 3e 2d d1 cd bd 6b 86 67 3e
       0.21115603 0.16661468 -0.10049663 0.2260987
000390 91 ec 89 be 6e d7 7f be 5e 7d 6b 3d cf 8d d3 3d
       -0.26938298 -0.24984524 0.057492606 0.10329782
0003a0 95 c9 ba be 9b 99 74 3e 1a 32 20 3c 90 1f bd bd
       -0.3648192 0.23886721 0.00977757 -0.09234536
0003b0 58 f7 2e 3e 61 32 04 be 2c 09 e8 bd f7 61 21 be
       0.17086542 -0.12909843 -0.113298744 -0.15760027
0003c0 f8 19 ed bd 14 b8 14 be 06 30 7c be 6d 8b 68 3d
       -0.11577219 -0.14523345 -0.24627694 0.05677359
0003d0 88 c7 2f 3e bb be 05 be 70 f5 4c be fa e1 84 3d
       0.17165959 -0.13061039 -0.20015502 0.06488414
0003e0 ed 7a 61 3c 3f ba 79 3d 54 8f 07 be 2a 2d 46 3e
       0.013762218 0.060968634 -0.13238269 0.19353166
0003f0 d3 40 81 3e 56 63 4a be 1b 9e cc be 8c 16 35 be
       0.2524477 -0.19764456 -0.39964375 -0.17684382

input_layer.bias f4 [32]
000000 40 96 a9 3d 64 55 4b be c8 42 49 3e 97 60 d8 3d
       0.08280611 -0.19856793 0.19654381 0.10565298
000010 ae 62 87 3e bd 9d 2e be 8d 0a 6c be 8d a4 8c 3e
       0.26442474 -0.1705236 -0.230509 0.27469292
000020 91 53 89 bd 63 4d 62 3d 4f e3 80 be d8 6f 1b 3e
       -0.06705392 0.055249583 -0.25173423 0.15179384
000030 48 2c d1 3d eb f2 cb 3d 29 59 76 be db ae 2e bc
       0.10213524 0.09958442 -0.2405745 -0.010661806
000040 8b a9 7a be f2 79 05 be 7e b8 a0 bd 2c 1e 4f 3e
       -0.24478738 -0.130348 -0.07847689 0.20226353
000050 05 1f 35 3e b4 d5 9a be b9 2f 9b 3c 8f 52 ae 3d
       0.17687614 -0.30241168 0.018943654 0.085118406
000060 af c9 11 3d 50 ed 85 bd 7f af 8b 3e ed 97 29 be
       0.03559273 -0.065394044 0.2728233 -0.16561861
000070 fe 23 16 3e 19 4a f0 3d 1d eb 96 be fd 31 e3 3d
       0.14662167 0.11732883 -0.29476252 0.11093519

hidden_layers.0.weight f4 [32, 32]
000000 77 ae 67 bc c0 5e 42 bd fc 81 06 be 4f 53 e8 3c
       -0.014140717 -0.047453642 -0.13135523 0.028360037
000010 9e 08 bd bd 41 79 a2 bd 93 b6 ca bd 8f 04 b9 3d
       -0.09230159 -0.079332836 -0.098981045 0.090340726
000020 14 f5 bb 3d e3 a0 14 be 6e b2 41 bd 31 b7 2c be
       0.09177604 -0.14514498 -0.047289304 -0.16866757
000030 4e fb 2b 3e 82 63 e3 bd c0 bc 2c 3e 8c ed 22 bd
       0.16795084 -0.11102964 0.16868877 -0.039777324
000040 a3 a1 c0 3d a9 4f 67 bd ba da 40 bc 6e 46 54 bd
       0.0940583 -0.056472454 -0.0117708985 -0.05182498
000050 3f e3 27 3e f1 b2 5f bc 69 57 3b 3e d4 fe 80 bd
       0.16395281 -0.013653503 0.18295063 -0.062986046
000060 c2 8d 52 3d 3d bd 4d be 5b d7 68 be 35 cc 27 3d
       0.051404722 -0.2009172 -0.22738402 0.04096623
000070 c9 c4 07 be 33 d8 2e 3d 3d a6 29 3e 56 1c aa 3a
       -0.13258661 0.042686652 0.16567321 0.0012978415
000080 81 b7 ed bd 27 d6 a4 bd 8c 8f c9 3d 7d 16 29 3e
       -0.11607266 -0.08048659 0.098418325 0.16512485
000090 62 94 83 3c 11 8a 11 3e 70 78 d8 3d 64 17 cf 3d
       0.016061965 0.14212824 0.10569847 0.10111883
0000a0 37 b2 2e 3e ba 59 24 be ca e6 cb 3d 82 4c 0f be
       0.17060171 -0.16049853 0.09956129 -0.13994029
0000b0 96 3d aa 3c 6d e9 c5 bd aa 19 e1 bd e9 b4 a0 bd
       0.02078132 -0.09663663 -0.10991223 -0.07847006
0000c0 3a 8d ac 3d da ed 9a 3d bf 92 da 3d 6e 01 e1 3d
       0.08425374 0.07564898 0.10672521 0.10986601
0000d0 ab 21 51 be af d8 ac 3d 15 c6 7d bc b4 22 13 be
       -0.20423 0.084397666 -0.015489121 -0.14368707
0000e0 ae c9 df bd dd 79 aa 3d b9 a6 68 3c 98 a3 10 be
       -0.10927139 0.08324025 0.014199906 -0.14124906
0000f0 b3 2c 92 bd b3 20 d5 3d 86 ee e0 3d 1b 53 d9 bd
       -0.07137432 0.104066275 0.10982995 -0.10611554
000100 8c 01 ab bd ce e2 14 be 14 23 2a be c2 a5 b2 bd
       -0.083499044 -0.14539644 -0.16614944 -0.08723022
000110 70 26 76 3d 23 ec 1e bc ac f8 38 3d c0 e6 e3 3d
       0.06009525 -0.009699854 0.045159027 0.111279964
000120 d0 c9 e8 bd 3f 87 ce 3d 6b d3 c7 bd d9 ae ca bd
       -0.11366618 0.1008439 -0.09757122 -0.09896631
000130 89 ef 17 be c4 d9 d8 3d d3 f8 cf bd 72 1e f2 3c
       -0.14837469 0.105884105 -0.10154881 0.029555533
000140 6f db 2a be 77 25 f7 3d b8 e0 cb bc c6 c6 98 bc
       -0.1668527 0.12067693 -0.024887428 -0.01864947
000150 fd ec 4c bd 89 d0 c4 3d 2d 64 45 3b 78 fc 1f 3e
       -0.050030697 0.096100874 0.0030119524 0.15623653
000160 55 fa 0e be 22 c7 14 3e 3f d1 39 be ad f1 7d 3c
       -0.13962682 0.14529088 -0.18146227 0.0154995145
000170 b3 b6 f3 3b 70 06 b9 3d 46 a4 09 be bd 4a f9 3d
       0.007437551 0.09034431 -0.13441572 0.12172458
000180 f4 fa d3 bd 4d 1d ae bd d4 4a fc 3d 09 95 25 3e
       -0.103506 -0.085016824 0.1231896 0.16170134
000190 98 33 f1 3d 3d 95 1a be 96 72 03 3e a6 88 b4 3c
       0.11777419 -0.15095992 0.1283668 0.022037815
0001a0 63 ae 2f be f2 f7 4a bb 2d cb 0f 3e cb 90 6e 3d
       -0.17156367 -0.003097054 0.14042349 0.058243554
0001b0 3c 47 5e bd f3 13 9d 3b 8e 50 27 be e2 4c 2b be
       -0.054267153 0.004793638 -0.16339323 -0.16728547
0001c0 60 a3 a3 3d dd ec 1a 3d 64 9a ec bc 33 53 98 bd
       0.07990146 0.037823547 -0.028882213 -0.07437744
0001d0 35 70 33 be 3d 53 3c bd b6 fd d6 bc b2 4b 24 3e
       -0.17523272 -0.04597782 -0.026244026 0.160445
0001e0 16 b5 37 bc e1 6f ca bc 8a 21 cb 3c 1c 54 13 bd
       -0.011212608 -0.024711551 0.024796266 -0.035968885
0001f0 35 a6 ed bc 00 eb 33 be c5 1d 7c 3d 50 af 4a 3b
       -0.029009918 -0.17570114 0.061551828 0.0030927248
000200 31 9c 2c 3e 0f 9b 3c 3e 68 4c 25 3e 8b 70 e3 3c
       0.16856457 0.18418525 0.16142428 0.027763626
000210 1c b4 5c 3b 68 bf 06 3d da dd e7 3d d9 be 36 be
       0.003367669 0.032897383 0.11321612 -0.1784624
000220 9a dd bf 3d 8d 8d 25 3e 7a 78 2a 3e ef a2 b4 3d
       0.09368439 0.16167279 0.1664752 0.088201396
000230 7f e9 97 3d 44 b4 ed 3d f1 42 51 3e 5b c6 08 3e
       0.07417583 0.116066486 0.20435692 0.13356917
000240 7e 6e 97 3d 57 50 93 3d 18 a1 1f 3e b9 d8 a1 bd
       0.073941216 0.07193058 0.15588796 -0.07902665
000250 fc a3 35 be ab cc 5e 3d 8e 77 87 bd f0 a5 eb 3a
       -0.17738336 0.054394405 -0.066146 0.001797853
000260 d1 d5 ff bd de a8 32 bd 24 26 ef bd b6 e9 5f 3d
       -0.12491954 -0.043618076 -0.116771966 0.054666243
000270 7c e5 9e 3c 48 56 f8 bd 1c ee 57 3e 36 9e 27 bd
       0.019396536 -0.12125832 0.21086925 -0.040922366
000280 0a 98 0a be ab f3 cd bc 62 b8 f1 3c 10 ed bc 3d
       -0.13534561 -0.025140604 0.029506866 0.092249036
000290 4c bc cd 3d b9 87 19 be c2 50 34 be 7e 2e 38 bd
       0.100456804 -0.1499318 -0.17608932 -0.044966213
0002a0 50 0f b9 3d 96 71 e6 3d 14 11 b9 3d bc ea 93 bd
       0.09036124 0.112521335 0.090364605 -0.072225064
0002b0 de 08 2c be 41 30 04 be 6a 77 dd 3c fa 4d 1a be
       -0.16800258 -0.12909032 0.02703448 -0.15068808
0002c0 96 b2 72 ba b7 53 6a 3c 05 7b 55 bd b3 02 0f 3e
       -0.0009258179 0.014302186 -0.052119274 0.13965873
0002d0 07 33 7f bd 59 a4 e4 3c d1 f2 a0 bd 96 f8 c6 bd
       -0.062304523 0.027910398 -0.078588136 -0.09715383
0002e0 9d 78 64 bd 8a 17 c3 bd 5c 26 c6 38 ae 68 27 3e
       -0.05577909 -0.09525974 9.448521e-05 0.16348526
0002f0 9d 14 b3 bc 70 ea fd 3c 2a 64 ee 3c f6 14 8a bb
       -0.021860415 0.030995578 0.029100496 -0.0042139245
000300 59 fe ed 3a 83 08 97 bd 0a 80 9d 3d 76 23 b0 3d
       0.0018157467 -0.0737467 0.07690437 0.08600514
000310 1c 0c b6 bd aa a5 0e 3e 40 b9 88 3d 0f 8c 22 3e
       -0.088890284 0.13930383 0.06675959 0.1587374
000320 0b 5b f3 bd 4f 15 0b 3e b3 50 f6 3c 08 0c 6d 3d
       -0.118825994 0.13582347 0.030067777 0.057872802
000330 83 2e c4 3c a3 17 a9 3d ad 71 23 3e 7c 2c 8d bc
       0.02394796 0.082564615 0.15961333 -0.017233126
000340 a9 c3 e9 bd 50 41 1e 3c bf e2 17 3e 37 3e 11 be
       -0.11414272 0.009659126 0.1483259 -0.1418389
000350 a8 1b 10 3e b8 ac 28 3e 15 32 dd 3c d7 cc 91 bd
       0.1407305 0.16472137 0.02700142 -0.07119148
000360 f6 72 25 bc 6a 64 96 3d b4 84 7c bd 13 3c 9f 3c
       -0.01009821 0.07343371 -0.061649993 0.019437825
000370 f2 8f df bd c4 1a 09 be 64 f5 20 3e 88 3d 01 3e
       -0.10916127 -0.13389117 0.15718609 0.12621129
000380 cf b9 8d 3b 22 fd b9 3d 1f a5 43 3d e8 32 47 3e
       0.0043251286 0.090814844 0.047764894 0.19453013
000390 ab 93 8a 3c 1e b7 fb bd 58 3b b6 bd 92 94 34 3e
       0.016916117 -0.12290786 -0.08898038 0.176348
0003a0 c8 c0 b6 ba 34 e0 e2 bd 27 5b 6b bc 6c cf 03 3c
       -0.0013942951 -0.110779196 -0.014364994 0.008045059
0003b0 9d 28 51 bd 7e bc 38 be 18 a4 d8 bd 67 e8 69 3b
       -0.051064122 -0.18040654 -0.105781734 0.00356915
0003c0 93 c7 2a 3e c5 01 aa 3d 83 45 00 3d b3 69 08 be
       0.16677694 0.08301119 0.03131629 -0.13321571
0003d0 52 3f 03 3d cb a1 14 3c 06 de 09 3e d4 6a 8b bb
       0.03204281 0.009071778 0.13463601 -0.0042546783
0003e0 59 1c db bc 32 17 a2 3d 6f f5 29 3e 8c e4 ad 3d
       -0.026746916 0.079145804 0.16597532 0.084908575
0003f0 9f 89 44 bd f9 6e 10 be 8f 97 04 be f0 f7 b3 bc
       -0.04798281 -0.14104833 -0.1294844 -0.021968812

hidden_layers.0.bias f4 [32]
000000 9a b3 23 be 9e 2c 0a be bf ab 26 bd 0c f8 23 be
       -0.15986481 -0.13493583 -0.040691134 -0.16012591
000010 24 59 61 3d 3e d2 04 bd 5d a4 18 be f5 2a 3a bd
       0.05501665 -0.032427065 -0.1490645 -0.045451123
000020 e1 1b 5f be 1c af 16 be 1d 0b f3 bd 49 89 71 bd
       -0.21787979 -0.14715236 -0.11867354 -0.058968816
000030 6d 0a 0a be 92 91 a8 3d 0d e8 63 bd f7 b6 00 be
       -0.1348054 0.0823089 -0.055641223 -0.12569796
000040 2b 57 b5 bd 5f 0e 28 3e 4e 39 00 be f8 a6 3b 3e
       -0.088545166 0.16411732 -0.1252186 0.18325412
000050 23 cf 0d 3e 07 c0 02 be 4d a3 5b 3e ba e2 13 3e
       0.13848548 -0.12768565 0.21449013 0.14441958
000060 67 dd c0 3d bd 19 3b 3d 00 d7 68 be 8a 10 de bb
       0.09417229 0.045678843 -0.22738266 -0.006776874
000070 d7 65 6f 3c a7 26 0a 3e ff 8b 3f bc 91 a2 8a bd
       0.014611683 0.13491307 -0.0116910925 -0.06769288

mu_layer.weight f4 [3, 32]
000000 27 af 09 bd 81 0d 37 3d 8c b7 62 bd 83 6d 3b 3d
       -0.033614304 0.044690613 -0.055350825 0.045758735
000010 d8 5b 6d bc 4d 52 ab 3b 65 1e 04 3e d7 5a 37 3e
       -0.014487229 0.005228317 0.1290222 0.17905746
000020 43 5c 0f be 0e c9 e1 bc e6 b9 74 3d bc 83 a6 3d
       -0.14000039 -0.02756169 0.0597476 0.08130595
000030 6f a8 10 3d e6 ef 7b 3d d8 f7 ea 3d 47 94 c7 3d
       0.03531688 0.06150808 0.11473054 0.097450785
000040 e9 82 48 be b7 1f 55 3e e0 80 22 bd de 04 d7 3d
       -0.19581188 0.2081288 -0.039673686 0.10498975
000050 49 13 39 3e af 59 80 bc 4c 0f a4 3c e5 55 01 be
       0.18073763 -0.015667764 0.020026825 -0.12630422
000060 91 4a 10 be 2e b5 d6 3d a2 c4 e1 bd c5 04 2f bc
       -0.14090945 0.10483776 -0.11023833 -0.0106822895
000070 7b d8 0a be 8e 38 13 3d e7 dd 75 bd 2b 3e 22 be
       -0.13559143 0.035942607 -0.060026076 -0.15844028
000080 45 b9 95 bb b7 ee c6 bd 42 8b fe bd 33 74 55 bd
       -0.004569205 -0.097135 -0.12428905 -0.05211277
000090 93 0f aa 3d 10 e6 0b 3e f4 e3 d5 3d 42 dc 63 3d
       0.08303752 0.1366198 0.10443869 0.055629976
0000a0 7d 69 8c bd be 18 8f 3d 6e 79 09 3e 57 03 12 bd
       -0.06856058 0.06987141 0.13425228 -0.035647716
0000b0 e0 b0 58 3d 12 b4 8e bd b8 26 8d bd 6b 67 b2 3d
       0.052903056 -0.069679394 -0.06892151 0.08711132
0000c0 7f af 11 3d a6 1a 19 3e 8e a8 05 3e 0a 6a 8b bd
       0.035567757 0.14951572 0.1305258 -0.06807335
0000d0 dc b9 42 3e 59 63 bd 3d e9 44 37 3e 3f 41 32 bb
       0.19016212 0.09247465 0.17897381 -0.0027199534
0000e0 9d f8 c3 bd 45 35 7d bd 16 51 a7 bd ae 07 39 3e
       -0.095689036 -0.06181838 -0.08169763 0.18069336
0000f0 bb f5 b8 3d 59 98 a0 bd d1 24 ac bc 2b f4 9e 3d
       0.09031244 -0.07841558 -0.02101365 0.07761415
000100 58 59 4a bd 5f 3e 2a 3e c1 7a ec bd 1e 91 68 3d
       -0.04940161 0.16625355 -0.11546851 0.05677902
000110 da ee 24 be ef 7d 25 be 9d 56 a9 bd a0 11 09 be
       -0.1610674 -0.16161321 -0.08268473 -0.1338563
000120 0d ab 9f 39 e1 bc b5 bd dc a6 31 be eb 8f 90 bc
       0.00030454286 -0.088739164 -0.17348808 -0.01764675
000130 9a ee a7 bd 05 bf c8 bd c5 97 ee bd bb 11 c2 3d
       -0.081998065 -0.09802059 -0.116500415 0.09476038
000140 11 54 45 bc 39 10 23 be 94 3b 20 be 78 9f 72 bd
       -0.012043969 -0.15924157 -0.15647727 -0.059234113
000150 11 e6 f1 bd 47 fa c4 3c ae ec a7 3b 33 72 19 be
       -0.1181146 0.024045123 0.00512465 -0.1498497
000160 42 72 b7 bd aa aa 98 3d bf a8 46 be a2 ab c4 3d
       -0.0895734 0.074544266 -0.19400309 0.09603049
000170 cf 67 a2 bc fc 61 f2 3d d0 29 2b be a5 e0 59 3d
       -0.01982489 0.11835095 -0.16715169 0.053192753

mu_layer.bias f4 [3]
000000 9a 44 86 bd f4 03 ec bb 49 04 25 bd
       -0.065560535 -0.0072026197 -0.04028729

log_std_layer.weight f4 [3, 32]
000000 26 c8 42 3e c2 68 73 3d 18 b4 30 bb e3 51 da bc
       0.19021663 0.059426077 -0.0026962813 -0.026650375
000010 6c 30 12 3e f4 07 43 3d 7f ae f3 bd a7 e4 b1 bd
       0.14276284 0.047615007 -0.11898517 -0.0868619
000020 9d a7 29 3e 21 23 da 3d 20 5a a5 bd d4 70 20 3d
       0.16567846 0.106512316 -0.080738306 0.0391701
000030 cd 5b 8d bd 7d d6 ad bd 95 b3 f8 3d 2a 23 f8 3d
       -0.06902275 -0.08488176 0.121436276 0.12116082
000040 a5 0e a3 3d 22 92 d6 3d b7 a2 47 3d a6 3d 02 be
       0.079617776 0.10477091 0.04873916 -0.1271883
000050 37 b7 d5 3d de b3 82 bc de 38 39 be 7e fd 5b 3d
       0.10435336 -0.015954908 -0.180881 0.053708546
000060 f3 46 06 be a1 5b ae 3c 49 3f b2 3d 80 23 28 3d
       -0.13113002 0.021283926 0.08703477 0.04104948
000070 16 d6 15 be 3b 15 01 be 1f 16 92 3c 04 56 9c 3d
       -0.14632449 -0.12605755 0.017832814 0.07633594
000080 cd 6a a9 3d d5 8c 08 3e 00 9d b9 bd e7 a1 94 3c
       0.08272324 0.13334973 -0.090631485 0.018143607
000090 5d 4e 21 3c 8b 84 01 be fa 3c 5a 3e 1a 55 97 bd
       0.009845343 -0.12648217 0.21312323 -0.07389279
0000a0 b2 2f 38 3e f8 a6 c5 bd 5a c8 f8 3d ef 6d 32 3d
       0.17986944 -0.096509874 0.12147589 0.043561872
0000b0 e1 19 54 bc bf 78 89 bd f6 58 cc 38 fe fb 66 3d
       -0.012945623 -0.067124836 9.744048e-05 0.056392662
0000c0 b4 1a 97 bc 43 2b 26 bd 85 f6 23 be f8 f0 23 be
       -0.01844535 -0.0405686 -0.16012008 -0.16009891
0000d0 d1 23 dc bc ae 29 ec 3d 0f a9 f2 bd 04 36 53 bd
       -0.026872547 0.11531387 -0.118486516 -0.051565185
0000e0 4e 0e b8 3d 5a 94 aa bd f5 e2 37 3e 6e fa 33 3c
       0.089871034 -0.08329077 0.17957671 0.010985
0000f0 fc ff a6 bd 47 2e 03 be b2 a8 91 bc 83 ae cb 3d
       -0.08154294 -0.12810622 -0.017780636 0.09945395
000100 e5 12 20 3d 6b 6b 1d 3e 32 f9 b0 bc 4b 8b 6d 3c
       0.03908052 0.15373008 -0.0216032 0.014498542
000110 33 98 0a 3e 0b d7 0b be 06 fb 67 bd a9 33 a0 3d
       0.13534622 -0.13656251 -0.05663588 0.078223534
000120 64 a9 34 bd 00 03 db 3c 04 27 56 bd fc d8 1b be
       -0.044106856 0.026734829 -0.052283302 -0.15219492
000130 fa 6c 17 3e 03 45 a4 3d 2a 63 4e bd 12 2a 1d bd
       0.14787665 0.080209754 -0.05038754 -0.0383702
000140 be a8 f3 3d 33 bf 28 be 2a 5a 2e 3e 7f ff f6 bd
       0.118974194 -0.16479187 0.17026582 -0.12060451
000150 0b 7c 8a bd 56 d4 19 3e a8 b3 48 3d 38 b7 0f be
       -0.067619406 0.15022406 0.04899946 -0.14034736
000160 a3 ff 37 be 25 1a 12 3e f3 75 da 3d 44 23 f8 3c
       -0.17968611 0.14267786 0.10667028 0.030290253
000170 34 c5 c1 bd cc e6 f4 bd 19 c1 02 3d b1 99 54 bc
       -0.09461442 -0.119580835 0.031922434 -0.012976096

log_std_layer.bias f4 [3]
000000 c9 5a 00 bc 9b 49 ea bd d2 4c 85 bd
       -0.007834145 -0.114398204 -0.06508793
